device= cuda
batch_size= 40
n_epochs= 100
init_lr= 1e-07
loss=BCE(sum) + 3*KLD
BasicVAE1(
  (fc1): Linear(in_features=64, out_features=20, bias=True)
  (encoder): Sequential(
    (0): Conv2d(1, 64, kernel_size=(4, 4), stride=(2, 2), padding=(1, 1), bias=False)
    (1): LeakyReLU(negative_slope=0.2, inplace=True)
    (2): Conv2d(64, 128, kernel_size=(4, 4), stride=(2, 2), padding=(1, 1), bias=False)
    (3): BatchNorm2d(128, eps=1e-05, momentum=0.1, affine=True, track_running_stats=True)
    (4): LeakyReLU(negative_slope=0.2, inplace=True)
    (5): Conv2d(128, 256, kernel_size=(3, 3), stride=(2, 2), padding=(1, 1), bias=False)
    (6): BatchNorm2d(256, eps=1e-05, momentum=0.1, affine=True, track_running_stats=True)
    (7): LeakyReLU(negative_slope=0.2, inplace=True)
    (8): Conv2d(256, 1024, kernel_size=(3, 3), stride=(2, 2), bias=False)
    (9): LeakyReLU(negative_slope=0.2, inplace=True)
  )
  (fc2): Linear(in_features=1024, out_features=512, bias=True)
  (fc31): Linear(in_features=512, out_features=50, bias=True)
  (fc32): Linear(in_features=512, out_features=50, bias=True)
  (decoder): Sequential(
    (0): ConvTranspose2d(1024, 512, kernel_size=(4, 4), stride=(1, 1), bias=False)
    (1): BatchNorm2d(512, eps=1e-05, momentum=0.1, affine=True, track_running_stats=True)
    (2): ReLU(inplace=True)
    (3): ConvTranspose2d(512, 256, kernel_size=(4, 4), stride=(2, 2), padding=(1, 1), bias=False)
    (4): BatchNorm2d(256, eps=1e-05, momentum=0.1, affine=True, track_running_stats=True)
    (5): ReLU(inplace=True)
    (6): ConvTranspose2d(256, 128, kernel_size=(4, 4), stride=(2, 2), padding=(1, 1), bias=False)
    (7): BatchNorm2d(128, eps=1e-05, momentum=0.1, affine=True, track_running_stats=True)
    (8): ReLU(inplace=True)
    (9): ConvTranspose2d(128, 1, kernel_size=(4, 4), stride=(2, 2), padding=(1, 1), bias=False)
    (10): Sigmoid()
  )
  (fc4): Linear(in_features=50, out_features=512, bias=True)
  (fc5): Linear(in_features=512, out_features=1024, bias=True)
  (relu): ReLU()
)
loading training dataset ... ...
900  proteins in hand
train dataset len:  308360
train loader size:  7709
successfully loaded training dataset ... ...
loading validation dataset ... ...
300  proteins in hand
val dataset len: 111784
val loader size:  2795
successfully loaded validation dataset ... ...
Starting epoch 1/101
epoch:1/101, train_loss: 32641.4960938
…
